adios.tflite (tflite, 206748 bytes, 9 tensors)

Const_1 f4 [32]
0	0xbb821e35	-0.003970886
1	0xbca3e507	-0.02000667
2	0x3c84abdf	0.016195236
3	0xbc65b42d	-0.014020008
4	0xbca7bb53	-0.020475065
5	0x3c264d99	0.010150337
6	0xbc757a41	-0.014982761
7	0x3c4da81d	0.012552288
8	0x3c48d1db	0.012257065
9	0xb929be8d	-0.00016188082
10	0x3be25664	0.006907271
11	0x3c84ee51	0.01622692
12	0x3aa1b9cb	0.0012338696
13	0xbc940935	-0.018070797
14	0xbbae1c0c	-0.005313402
15	0xba2ec606	-0.0006667081
16	0xbae3ec27	-0.0017389104
17	0x3c321fdf	0.0108718565
18	0x3c263510	0.010144487
19	0x3c1a89ef	0.0094323
20	0xbb4f415b	-0.0031624648
21	0xbc9e3a54	-0.019314922
22	0x3bd93d9e	0.00662966
23	0xbcc04a55	-0.023472944
24	0xbcbb8121	-0.022888722
25	0x3a210531	0.0006142436
26	0xba0f9c4e	-0.00054783083
27	0xbbad2d92	-0.0052849734
28	0xbccf5799	-0.025310325
29	0x3b2ec2e8	0.0026666466
30	0x3c7d1bd0	0.015448526
31	0x3caccc0d	0.021093393

Const_2 f4 [32]
0	0x3f780c9e	0.9689425
1	0x3f801d05	1.0008856
2	0x3f7c3eb7	0.98533195
3	0x3f80c86e	1.0061166
4	0x3f789873	0.9710762
5	0x3f7dfa50	0.9921007
6	0x3f7ce0b4	0.9878037
7	0x3f81771a	1.0114472
8	0x3f8376b4	1.02706
9	0x3f81d53a	1.0143197
10	0x3f81c6f8	1.0138845
11	0x3f7f4082	0.99707806
12	0x3f82759d	1.0192143
13	0x3f80025b	1.0000719
14	0x3f7ed930	0.9955015
15	0x3f7ed8df	0.9954967
16	0x3f7ea01d	0.99463063
17	0x3f83cf29	1.0297595
18	0x3f7f768b	0.9979026
19	0x3f86f8e2	1.0544703
20	0x3f7f10f3	0.9963524
21	0x3f7cddc3	0.9877588
22	0x3f77cf3a	0.9680058
23	0x3f808481	1.0040437
24	0x3f7a3a25	0.9774497
25	0x3f8171d9	1.0112869
26	0x3f7f6dfc	0.997772
27	0x3f79d683	0.97592944
28	0x3f7ef8ee	0.99598587
29	0x3f8051c9	1.0024959
30	0x3f7eb855	0.9950002
31	0x3f81cb6c	1.0140204

Const_3 f4 [32]
0	0x3c2b0f19	0.010440611
1	0xbc028ca6	-0.0079681035
2	0x3bfdfb12	0.007750877
3	0x3baeb2b4	0.0053313617
4	0x3c0a8af6	0.008455982
5	0xbaf36839	-0.001857049
6	0xbc24789c	-0.010038521
7	0xbc11206d	-0.008857829
8	0x3c14e844	0.00908858
9	0x3d62d3e0	0.05537784
10	0x3cece375	0.028917054
11	0xbc7628f0	-0.015024409
12	0x3d11786b	0.03551523
13	0xbbd1c183	-0.006401242
14	0xbbb0b465	-0.0053925985
15	0xbc53d2a7	-0.012928641
16	0xbc61818e	-0.013763798
17	0x3d2db160	0.042405486
18	0xbc63994f	-0.013891532
19	0x3cce9c10	0.0252209
20	0x3b81943d	0.003954439
21	0xbd03ce2f	-0.032179054
22	0x3c309f2d	0.010780138
23	0x3c0d181c	0.008611705
24	0x3d0271d7	0.031846847
25	0x3c05d896	0.008169314
26	0xbc6ab7af	-0.01432602
27	0x3c2eeb76	0.010676255
28	0xbc87d132	-0.016579244
29	0xbb0afa56	-0.002120634
30	0xbc8e8629	-0.017397957
31	0x3ae29dd1	0.0017289465

Const_5 f4 [32]
0	0xbd4706ef	-0.048590597
1	0xbe1dea4d	-0.1542141
2	0x3dafe7f7	0.08589166
3	0xbdbce3f1	-0.09223164
4	0x3daeb139	0.08529896
5	0x3dfd14e8	0.12357503
6	0x3d3d7472	0.04625363
7	0xbe12730e	-0.14301702
8	0x3c0e0190	0.008667365
9	0x3dd32627	0.10310011
10	0x3db63722	0.088972345
11	0x3ce02f74	0.027366377
12	0xbb033c81	-0.0020025077
13	0xbe144da0	-0.14482737
14	0xbde5df8c	-0.11224279
15	0xbe16ae6f	-0.14714979
16	0x3e1d7928	0.15378249
17	0xbe3e42d3	-0.18580179
18	0x3e2297ba	0.15878192
19	0x3d950ee8	0.07278234
20	0xbb578616	-0.0032886318
21	0x3c3f4073	0.011673081
22	0xbd291de8	-0.041288286
23	0xbe15a502	-0.14613727
24	0x3e185491	0.1487601
25	0x3da8db66	0.08244972
26	0x3d5b972f	0.053610977
27	0x3d09f742	0.03368307
28	0x3c66b2fb	0.014080758
29	0xbd8e7f03	-0.06957819
30	0x3d889768	0.066695035
31	0xbc60d6bc	-0.013723072

Const_6 f4 [32]
0	0x3f81b511	1.0133382
1	0x3f81b749	1.0134059
2	0x3f7c9a8a	0.9867331
3	0x3f769160	0.96315575
4	0x3f8d57ad	1.1042382
5	0x3fa0d534	1.2565064
6	0x3f8a99a9	1.0828143
7	0x3fab58c5	1.3386465
8	0x3f807300	1.0035095
9	0x3f7fe222	0.99954426
10	0x3f84a022	1.0361369
11	0x3f866557	1.0499676
12	0x3faf07b4	1.3674226
13	0x3fa0ee62	1.2572749
14	0x3fa531ec	1.290586
15	0x3f8103c1	1.0079271
16	0x3f9f5da8	1.2450457
17	0x3f7e3ec7	0.9931454
18	0x3f7f8569	0.9981294
19	0x3f8266e0	1.0187645
20	0x3f9e9443	1.2388996
21	0x3f845ea2	1.034138
22	0x3f87f960	1.0622978
23	0x3f870dda	1.0551102
24	0x3fa03556	1.2516277
25	0x3f86eac9	1.0540401
26	0x3f7d0752	0.98839295
27	0x3f7f29c4	0.99673104
28	0x3f81119a	1.0083497
29	0x3f7c32a5	0.9851478
30	0x3f70e4d3	0.9409916
31	0x3f8bf3c9	1.0933772

Const_7 f4 [32]
0	0x3ca2d018	0.019874617
1	0x3caea78b	0.021320125
2	0xbbfde4bc	-0.0077482145
3	0xbd1d42de	-0.038393848
4	0x3d63c74f	0.055609997
5	0x3e8363b3	0.25662002
6	0x3d071b0c	0.03298478
7	0x3e96994d	0.29413834
8	0x3bbb5cd0	0.005717851
9	0x3c31d8e7	0.010854936
10	0x3d285315	0.04109486
11	0x3cb3a8b1	0.021931024
12	0x3e9c52ed	0.30532017
13	0x3e867f2c	0.262689
14	0x3e88b9f8	0.26704383
15	0x3b80747e	0.003920137
16	0x3e8423bc	0.25808513
17	0xbc1a8c9e	-0.00943294
18	0xbc1244e2	-0.008927556
19	0x3bc940b5	0.006141747
20	0x3e7aa3c7	0.24476539
21	0x3d218fcc	0.039443776
22	0x3d2c4a83	0.042063247
23	0x3d6e4d02	0.05817891
24	0x3e8335ca	0.25626975
25	0x3d02d707	0.031943347
26	0xbacda5b2	-0.001568964
27	0xbb9e7d4b	-0.0048367134
28	0x3b18e975	0.002333251
29	0xbcda223b	-0.02662765
30	0xbd5c727c	-0.05382012
31	0x3d1bf7c6	0.038078092

MatMul f4 [32, 1536]
0	0x3c44188c	0.011968743
1	0x3cc443ab	0.023958048
2	0x3a94aa92	0.0011342338
3	0x3c1a267d	0.00940859
4	0xbc038271	-0.008026705
5	0x3c52d3ca	0.012867877
6	0xbc6395a5	-0.0138906585
7	0x3a0ec6ac	0.00054464745
8	0x3c910346	0.017701756
9	0x3aad6bf7	0.0013231029
10	0xbccc74a7	-0.024957968
11	0xbb9a5758	-0.004710119
12	0x3b49af60	0.0030774698
13	0xbc0097c2	-0.007848682
14	0xbb86e11d	-0.004116191
15	0x3bbd347f	0.0057740803
16	0xba6ed334	-0.0009110451
17	0xbb5dcf0d	-0.0033845336
18	0x3b44f55f	0.003005348
19	0x3cea6cae	0.028616276
20	0x3c15ea56	0.009150108
21	0x3a99e971	0.0011742545
22	0x3b9d4c45	0.004800352
23	0xbb2a54f4	-0.0025990577
24	0xbca1f9f7	-0.019772513
25	0x3bef8353	0.0073093562
26	0xbb9a77fd	-0.0047140107
27	0x3b9e88ef	0.004838101
28	0xbbe9d9ab	-0.0071365437
29	0x3b7d90bb	0.0038691002
30	0x3bb1aa4d	0.0054219128
31	0x38425e93	4.6341283e-05
32	0xbac9e6a4	-0.0015403819
33	0x3c672195	0.014107128
34	0xbc818e05	-0.01581479
35	0x3b60acb7	0.0034282634
36	0xbc933f92	-0.017974649
37	0xbb4ac5ad	-0.0030940578
38	0xbc1078e0	-0.008817881
39	0x3bd333cc	0.0064453837
40	0xba78fad5	-0.0009497826
41	0x3b49fd04	0.0030820975
42	0x3c2286ee	0.009919865
43	0xbbbed34c	-0.0058235284
44	0x3bdf9fdb	0.006824476
45	0xbc348f7a	-0.011020536
46	0x3ba2deef	0.0049704234
47	0xbbcf002f	-0.0063171606
48	0x3c34caf5	0.011034717
49	0x3c1aef94	0.009456534
50	0x3a0742f2	0.0005159817
51	0x3c80e93b	0.015736213
52	0xbc78ac38	-0.015177779
53	0x3c50382b	0.012708704
54	0xbcb2b39b	-0.021814158
55	0xbc6a434c	-0.014298271
56	0xbc9d25e0	-0.0191831
57	0xbc5dc250	-0.013535097
58	0xbc1bb2e5	-0.009503101
59	0x3bd5d5a4	0.006525712
60	0x3c50ea15	0.012751122
61	0x3c7ca0de	0.015419213
62	0xbc5e2a42	-0.01355988
63	0x3bf1cd83	0.0073792352
64	0x3c9e26bf	0.019305585
65	0x3c39d9ac	0.011343401
66	0x3c6bb008	0.014385231
67	0x3c11718e	0.008877171
68	0x3bbf049f	0.0058294083
69	0xbc5d5b1d	-0.013510493
70	0x3b88eadc	0.004178388
71	0x3c9f2626	0.01942737
72	0xb98eaa03	-0.0002721102
73	0xbc5a8c93	-0.01333918
74	0x3bcc5494	0.0062356684
75	0xbc13c875	-0.009019961
76	0x3b3d1208	0.0028849859
77	0x3bfd22b5	0.0077250847
78	0xbc2cf57e	-0.010556577
79	0x3bec1a46	0.0072052805
80	0xbb77c951	-0.0037809203
81	0x3c057f15	0.0081479745
82	0x3c752399	0.0149621
83	0x3bc5e099	0.006038737
84	0xbbd8ef44	-0.0066203196
85	0x3b1eb7b5	0.0024218385
86	0x3c124b70	0.0089291185
87	0xbbbb1cf9	-0.005710241
88	0x3c0dd7ee	0.008657439
89	0x3cbb3b83	0.022855526
90	0xbbfcd4a9	-0.0077157808
91	0x3c16d24f	0.009205415
92	0x3c7ce0b5	0.015434434
93	0xbc9f9024	-0.019477911
94	0x3c11b7b3	0.008893895
95	0x3c0a1c2e	0.00842957
96	0xbb1a8884	-0.0023579905
97	0xbc6a3218	-0.01429417
98	0xbc1ae876	-0.009454837
99	0xbbe716eb	-0.0070522926
100	0x3c5fcc69	0.013659575
101	0xbca3fbf5	-0.020017603
102	0x3b470d7f	0.0030373035
103	0xbb641205	-0.003480078
104	0x3c618227	0.013763941
105	0xbb4300da	-0.0029755146
106	0x3c8f5055	0.01749436
107	0x3c2b195f	0.010443061
108	0x3c6d5777	0.014486185
109	0xbb92105a	-0.0044575157
110	0x3ada6784	0.001666293
111	0x3b39c804	0.0028347978
112	0x3c7a875c	0.015291061
113	0xbb9af2cb	-0.00472865
114	0xbb3feb61	-0.0029284584
115	0x3c5aa584	0.013345126
116	0xbc850712	-0.016238723
117	0xba9c7add	-0.0011938472
118	0xbb319f8b	-0.0027103152
119	0x3c4ad4aa	0.012379805
120	0x3bcd0322	0.006256477
121	0xbc9e9fa1	-0.019363226
122	0x3c1f382b	0.009717981
123	0xbc1d3d48	-0.00959713
124	0xbc2cda9c	-0.010550167
125	0x3c5a99b7	0.013342313
126	0xbbc2b385	-0.0059418106
127	0x3a97ae36	0.0011572305
128	0x3c03efb8	0.008052759
129	0xb9e0e761	-0.00042897
130	0x3c8611f2	0.016365979
131	0x3b8888f8	0.0041667186
132	0x3c501b55	0.012701829
133	0xbc586ed2	-0.013210015
134	0xbbdf78f8	-0.0068198405
135	0xbc63e0a3	-0.013908538
136	0x3c6295a8	0.013829626
137	0xbbf5d99b	-0.0075027472
138	0x3b55e06a	0.0032634982
139	0xbccd10d8	-0.025032446
140	0x3bf44d8a	0.0074555324
141	0xbb8efc31	-0.0043635597
142	0xbca627cc	-0.020282649
143	0x3bc1849c	0.005905701
144	0x3c6aa8dc	0.014322486
145	0x3c2eb985	0.0106643485
146	0xbcff55c9	-0.031168835
147	0x3aec0f24	0.0018009883
148	0x3a0bc27d	0.000533141
149	0xbcce0585	-0.025149116
150	0x3c8ecdf4	0.01743219
151	0xbcb77764	-0.022395797
152	0x3c948333	0.018128967
153	0x3cbe7018	0.02324681
154	0x395c715d	0.00021023066
155	0xbc9c56b2	-0.019084308
156	0x3c6dabba	0.014506275
157	0x3b03c293	0.002010499
158	0x3c3f8cff	0.011691331
159	0xbc96eafe	-0.0184226
160	0xb9659398	-0.00021894125
161	0x3aacb505	0.0013176507
162	0xbc4c4388	-0.012467273
163	0xbb4ce8e1	-0.0031266736
164	0x3c484785	0.012224083
165	0x3c33f94a	0.010984728
166	0xbcaa1a6c	-0.020764552
167	0x3b8c9fed	0.0042915256
168	0xbcb1d49d	-0.021707827
169	0x3bede30d	0.0072597326
170	0xbc3adf7c	-0.011405822
171	0x3c0ceaac	0.008600872
172	0xbadc3530	-0.0016800519
173	0xbcbb1034	-0.022834875
174	0x3c5502c1	0.013001145
175	0x3b1cf992	0.0023952466
176	0x3cba4408	0.022737518
177	0xbc907198	-0.01763229
178	0x3ba4e6db	0.005032403
179	0xbc7ec88d	-0.015550745
180	0x3bd18c36	0.0063948883
181	0xbb358771	-0.0027699138
182	0x3cd39c9d	0.025831515
183	0x3ba05f7c	0.004894195
184	0xbc63ea83	-0.013910892
185	0xbc76d98c	-0.015066516
186	0xbc5bbd94	-0.013411898
187	0xbb8b47ae	-0.0042504882
188	0xbb3f6269	-0.0029202944
189	0xbb26685b	-0.002539179
190	0x3ba9dedb	0.005184037
191	0xbc5002c9	-0.0126959765
192	0x3b8423d8	0.004032593
193	0x3cae3494	0.021265306
194	0x3c0acc54	0.008471567
195	0x3a3b69a7	0.00071492273
196	0x3c3468a1	0.011011274
197	0xbada5e6f	-0.0016660223
198	0x3c8397b9	0.016063558
199	0xbc8ac7df	-0.01694101
200	0x3c93b78c	0.018031858
201	0xbcb3d767	-0.021953298
202	0xbc81bc7b	-0.015836945
203	0xbc495245	-0.012287681
204	0xbc4b59ef	-0.012411579
205	0x3b8e69db	0.004346115
206	0x3ce49393	0.0279024
207	0xbb9d05e0	-0.00479196
208	0x3b1f6042	0.0024318849
209	0xbc9dca14	-0.019261397
210	0xbc1b62d1	-0.009484009
211	0xbc68743c	-0.014187869
212	0x3c97483f	0.018467067
213	0x3c9671b8	0.018364772
214	0xbc1fa80f	-0.009744658
215	0xbbf1e79d	-0.007382347
216	0x3b305369	0.0026905185
217	0x3c0f93aa	0.008763233
218	0x3ca5895e	0.020207103
219	0xbb0847e2	-0.0020794799
220	0x3cb61679	0.022227513
221	0xbba15757	-0.004923742
222	0xbba40fbf	-0.00500676
223	0xbb898107	-0.0041962895
224	0xbcc382bf	-0.023866056
225	0xbc7cbc6b	-0.015425782
226	0xbc9cb091	-0.019127162
227	0x3cea4903	0.028599268
228	0x3c95bedb	0.018279484
229	0xbbe556fe	-0.0069988957
230	0x3c61b5b4	0.013776232
231	0x3c8d7426	0.017267298
232	0xbcdac3d3	-0.026704704
233	0x3c4ae28a	0.012383113
234	0x3caee6d4	0.021350302
235	0x3c45077a	0.012025708
236	0xbb9b5951	-0.004740872
237	0x3bdc99ec	0.006732216
238	0xbc9a2b63	-0.018819517
239	0x3adf6851	0.0017044639
240	0x3c6c869a	0.014436388
241	0xbc81574c	-0.015788697
242	0x3c9df125	0.019280026
243	0x3c53655d	0.012902585
244	0x3b610f4e	0.0034341398
245	0xbc624bf5	-0.013812055
246	0xbbc612a7	-0.006044704
247	0x3c13aba0	0.009013087
248	0xbb3c5b8a	-0.0028741085
249	0x3c99916b	0.018746099
250	0xbad9c3b8	-0.0016614115
251	0x3c706fb4	0.01467507
252	0x3b1c799e	0.00238762
253	0xbb568ca1	-0.003273763
254	0xba8b4c1e	-0.0010627543
255	0xbc3485e6	-0.011018252

MatMul_1 f4 [32, 32]
0	0x3dd6c787	0.104872756
1	0x3d23bb58	0.039973587
2	0xbcbe5f70	-0.023238868
3	0x3d841e26	0.06451063
4	0x3e15ab86	0.14616212
5	0x3d7a2d8d	0.061078597
6	0x3d44225d	0.047884334
7	0x3e0aa874	0.13540822
8	0xbc73f4af	-0.01488988
9	0x3d635072	0.05549664
10	0x3d843438	0.064552724
11	0xbda8bf09	-0.08239562
12	0xbdd2e1ab	-0.10296949
13	0x3d71a2c7	0.058993127
14	0x3e14ccbe	0.14531228
15	0x3e20a310	0.15687203
16	0xbd03a052	-0.032135315
17	0xbd39b28e	-0.0453363
18	0x3dc62a07	0.09675985
19	0xbc01f371	-0.007931576
20	0xbdd56439	-0.104195066
21	0xbc65a8cd	-0.014017296
22	0x3e092106	0.13391504
23	0xbde0104b	-0.10940608
24	0xbc5f0c61	-0.013613791
25	0xbe025a7e	-0.12729833
26	0x3dc785ed	0.09742341
27	0xbde46624	-0.11152294
28	0xbd92f04a	-0.07174738
29	0xbd873a8e	-0.06602965
30	0x3e338fdc	0.17535347
31	0x3c82fd18	0.015989825
32	0x3da961c5	0.08270601
33	0x3d843622	0.064556375
34	0x3d975f13	0.07391181
35	0xbc3193b9	-0.0108384425
36	0xbd4f8cff	-0.050671574
37	0xbcf60b6d	-0.030034745
38	0x3d1db464	0.038502112
39	0xbdfdc3d2	-0.123908654
40	0xbe0d00fb	-0.13769905
41	0x3dbe2255	0.09283892
42	0xbd4d4d89	-0.05012277
43	0x3e093361	0.13398506
44	0xbdbf1f7a	-0.093321756
45	0xbd4182e9	-0.047243986
46	0xbd00bdc3	-0.03143097
47	0x3e2d6ae6	0.1693531
48	0xbd00cac4	-0.031443372
49	0xbc891c81	-0.016737225
50	0x3d9190ed	0.071077205
51	0xbccf454e	-0.025301602
52	0x3e1afc60	0.15135336
53	0x3d9096e0	0.07060027
54	0x3dc37345	0.0954347
55	0x3e180d42	0.14848807
56	0xbe203eb3	-0.15648918
57	0xbc7867fb	-0.01516151
58	0xbd99c9d1	-0.075091965
59	0x3bec1872	0.0072050625
60	0x3c89cba3	0.016820734
61	0x3bbb81b9	0.0057222513
62	0xbe13dde8	-0.1444012
63	0x3bbef1dc	0.0058271717
64	0x3d25671a	0.04038153
65	0xbd1e12fd	-0.038592327
66	0x3b661cc6	0.0035112365
67	0x3e04252c	0.12904805
68	0xbe11a1bf	-0.14221857
69	0x3df3c03e	0.11901902
70	0x3e1517b4	0.14559823
71	0xbcded4af	-0.027201025
72	0x3d12b05e	0.035812728
73	0xbe0a559c	-0.1350922
74	0xbdba5f45	-0.091002025
75	0x3cbe944b	0.023264071
76	0xbacd2383	-0.0015650842
77	0x3e1c5fc1	0.15270902
78	0xbde7ed90	-0.11324608
79	0x3e10f58d	0.1415617
80	0x3d9095f7	0.070598535
81	0x3df6d540	0.12052393
82	0x3d2aab07	0.04166701
83	0x3bbbcbfd	0.0057311044
84	0xbe25632a	-0.1615111
85	0xbc13d610	-0.009023204
86	0x3daa84b9	0.08326096
87	0xbdad7caf	-0.08471047
88	0x3c65d2c6	0.014027303
89	0x3d9d90e4	0.07693651
90	0xbdaa444b	-0.08313807
91	0x3b8bce68	0.004266549
92	0x3d8efb7d	0.06981561
93	0x3e087822	0.13327077
94	0xbd84d018	-0.06485003
95	0x3e0c00c0	0.13672161
96	0x3d9c37f2	0.07627858
97	0xbdd9ca8c	-0.10634336
98	0xbde3d166	-0.11123924
99	0x3d460347	0.04834297
100	0xbe0d7ad8	-0.13816392
101	0xbe17e515	-0.14833482
102	0xbd9799de	-0.07402395
103	0x3d9cd62a	0.07658036
104	0x3e1b4d62	0.15166238
105	0xbdf23960	-0.1182735
106	0x3d93f0f9	0.07223696
107	0x3e00a1bf	0.12561701
108	0xbe1b7da1	-0.15184642
109	0x3d4700b8	0.04858467
110	0x3e104382	0.14088252
111	0xbe00b7ff	-0.12570189
112	0xbe1b3523	-0.15156989
113	0x3e151035	0.14556964
114	0xbc633698	-0.013867997
115	0x3dec4efb	0.11538502
116	0xbde9aa2c	-0.11409411
117	0xbe013285	-0.12616928
118	0x3dcaf172	0.09909333
119	0xbdff9df1	-0.12481297
120	0xbcb6085b	-0.022220781
121	0x3e0d5113	0.13800459
122	0x3d9b8a4d	0.07594738
123	0x3e3121a7	0.17297994
124	0x3e1f0db5	0.15532573
125	0x3d0f1462	0.034931548
126	0xbdce9a87	-0.100880675
127	0xbd5ea24e	-0.054354005
128	0x3d045c61	0.032314662
129	0xbd365d06	-0.044522308
130	0xbc427756	-0.011869272
131	0xbd65d4fe	-0.05611133
132	0x3db43447	0.087990336
133	0x3cb1cee3	0.021705097
134	0xbd80bc76	-0.06285946
135	0xbdfd4bb7	-0.12367957
136	0x3e035fc3	0.12829499
137	0x3dd140bb	0.102174245
138	0x3e297bb1	0.16551091
139	0x3bb0bc09	0.0053935093
140	0x3b6d6ac8	0.0036226977
141	0x3dfbb437	0.12290233
142	0xbd8b77d6	-0.06809966
143	0x3debe1da	0.11517687
144	0xbd93e8fd	-0.07222173
145	0x3e1e3e24	0.15453392
146	0xbd3a4953	-0.045480084
147	0xbe3910b6	-0.18072781
148	0xbdbf7a11	-0.09349454
149	0x3d40ea22	0.047098286
150	0xbd494b25	-0.04914393
151	0x3d2a1e4e	0.041532807
152	0xbde18b99	-0.11012954
153	0xbe070051	-0.13183714
154	0xbe1fcce7	-0.15605508
155	0x3e24c880	0.1609211
156	0x3c4ed3d8	0.01262375
157	0x3d966857	0.0734412
158	0xbd87ef1e	-0.06637405
159	0xbe00747b	-0.12544434
160	0x3dd6b9c9	0.104846545
161	0x3db9a566	0.090647504
162	0xbc60a81d	-0.013711956
163	0x3c371784	0.01117504
164	0x3e1822de	0.14857051
165	0xbdcafb50	-0.09911215
166	0xbe004672	-0.12526873
167	0xbdb56533	-0.08857193
168	0xbe048dd4	-0.12944728
169	0x3d8ecbea	0.06972487
170	0xbd7405ff	-0.05957603
171	0x3dbc944c	0.09207973
172	0x3dcaa926	0.09895544
173	0x3d936ed8	0.07198876
174	0x3e09d723	0.13460974
175	0x3e06c8e5	0.13162573
176	0x3c5d5ded	0.013511163
177	0xbe01458d	-0.12624188
178	0xbdd85205	-0.10562519
179	0x3bf63ab3	0.0075143217
180	0x3e1824e7	0.14857827
181	0x3c3d7774	0.011564124
182	0xbc216df6	-0.009852877
183	0xbde136ba	-0.109967664
184	0x3d1855db	0.037191253
185	0xbc7d820e	-0.015472902
186	0x3d4e4f19	0.050368402
187	0x3da80946	0.08204894
188	0xbd943d4c	-0.07238254
189	0xbda38bb6	-0.07985632
190	0xbd5fc981	-0.05463553
191	0xbc07ff0b	-0.008300553
192	0x3d7bdfc9	0.061492715
193	0xbc655277	-0.013996712
194	0xbdb9488b	-0.090470396
195	0x3c9189c5	0.017765889
196	0x3e281012	0.1641238
197	0xbdb0da33	-0.08635368
198	0xbdfd6a63	-0.12373807
199	0x3e057a02	0.13034824
200	0x3d8cd402	0.06876375
201	0x3dc005d2	0.0937611
202	0x3e31722a	0.17328706
203	0xbe349710	-0.17635751
204	0xbe12a05f	-0.14318989
205	0xbd82f273	-0.063939
206	0x3e2df826	0.16989192
207	0x3e12ca40	0.14334965
208	0xbde11c0a	-0.10991676
209	0xbd73e454	-0.059543923
210	0x3e2e2156	0.17004904
211	0xbe0cd6b2	-0.13753775
212	0xbd310739	-0.04321978
213	0xbdf68687	-0.12037378
214	0xbd836e90	-0.064175725
215	0x3cbdea34	0.023182966
216	0x3dd154c3	0.10221245
217	0x3a192de2	0.0005843324
218	0xbd9778a9	-0.07396061
219	0xbcf804f3	-0.030275797
220	0xbe0fb440	-0.14033604
221	0xbd6be9fa	-0.057596184
222	0x3e0ccd64	0.13750225
223	0x3e0a8299	0.13526382
224	0xbc8813c7	-0.016610993
225	0x3dc4ebb4	0.09615269
226	0x3e24fc62	0.16111901
227	0x3d81d8c6	0.063401744
228	0xbd750e01	-0.05982781
229	0xbdd593f7	-0.10428613
230	0x3ddaf699	0.10691566
231	0xbe0dff69	-0.13866962
232	0xbde1edca	-0.11031683
233	0x3d2aa3de	0.041660182
234	0xbd95846d	-0.07300649
235	0x3de5c908	0.11219984
236	0xbc962c1b	-0.018331578
237	0xbe24ae98	-0.16082227
238	0x3db5f5ec	0.088847965
239	0xbe1503b6	-0.14552197
240	0xbdfcd379	-0.12345023
241	0x3dae45d1	0.0850941
242	0x3dbb92cb	0.09158858
243	0x3e41f021	0.18939258
244	0xbcf5fcf7	-0.03002785
245	0x3e22a043	0.15881447
246	0xbdfc8760	-0.12330508
247	0xbd9f397a	-0.07774635
248	0x3dd4909b	0.10379144
249	0x3de13087	0.10995584
250	0x3dcab889	0.098984785
251	0x3def3f28	0.11681968
252	0xbdce2767	-0.10066109
253	0x3d9c122a	0.07620652
254	0xb999806c	-0.00029278116
255	0xbce51fa9	-0.027969198

MatMul_2 f4 [1, 32]
0	0x3e1ff394	0.15620261
1	0xbcc46bda	-0.023977209
2	0xbc888415	-0.016664544
3	0xbba99b2c	-0.0051759686
4	0x3e3dc53d	0.18532272
5	0xbeb402c1	-0.3515835
6	0x3e0bb3a6	0.13642749
7	0xbeab7841	-0.33490184
8	0x3ca46e1c	0.020072035
9	0xbbaddfca	-0.0053062188
10	0x3db861fa	0.090030625
11	0x3dd2c70c	0.102918714
12	0xbeb07ad6	-0.34468716
13	0xbea7b481	-0.327549
14	0xbebb39cb	-0.3656753
15	0xbdafbfb8	-0.08581489
16	0xbea33e06	-0.31883258
17	0x3d331197	0.043717947
18	0xbd566bbf	-0.05234885
19	0x3d9108a4	0.07081726
20	0xbec70c37	-0.38876507
21	0x3e229c2f	0.15879892
22	0x3e558a11	0.2085345
23	0x3e2682d8	0.1626085
24	0xbeb209dd	-0.3477315
25	0x3e51a76e	0.20474026
26	0xbcbd3465	-0.023096273
27	0x3c4ec6ff	0.012620687
28	0x3d8cc2d4	0.06873098
29	0x3e037bc1	0.12840177
30	0xbd70e97b	-0.058816414
31	0x3e66d814	0.22543365
