house.tflite (tflite, 206748 bytes, 9 tensors)

Const_1 f4 [32]
000000 8e 7b 56 3a dd 9c cc 3b 57 5e 89 bc e5 da dd bb
       0.0008181863 0.0062442855 -0.016768618 -0.006770479
000010 32 c1 8a 3c 60 42 9e 3b d3 2f 6e 3c 8e 40 86 bc
       0.016937826 0.00482969 0.014537769 -0.016388204
000020 73 1a 38 3b e1 78 98 bc 95 70 b7 bb 33 07 8e 3c
       0.0028091937 -0.018612327 -0.0055981376 0.017337417
000030 e3 16 a6 3c 90 f5 6c 3b 22 96 55 3c a2 1b 69 bc
       0.020274585 0.003615711 0.013036283 -0.01422778
000040 60 61 6a bb 70 f6 4c bc a8 62 b3 3a 3c 0a 9d 3b
       -0.0035763606 -0.012509927 0.0013686018 0.00479248
000050 18 7e b9 3c 6f 51 1c bc 4b 20 c0 bc 45 70 23 bb
       0.022643134 -0.0095409 -0.023452898 -0.0024938744
000060 17 5f 5c bb e7 97 74 3c 49 2d d2 3c 63 43 c4 3c
       -0.0033626014 0.0149287945 0.02565636 0.023957914
000070 60 1e 60 3c a0 08 ac bb 00 46 a3 bc 30 83 14 3c
       0.013679117 -0.0052500516 -0.01993084 0.009064481

Const_2 f4 [32]
000000 fd f5 7d 3f 5d 59 7f 3f 89 31 80 3f 33 b0 7f 3f
       0.99203473 0.9974573 1.0015117 0.99878234
000010 15 59 83 3f d3 6a 83 3f a8 3f 82 3f 2c a9 7d 3f
       1.0261561 1.0266975 1.0175676 0.9908626
000020 1b d6 7e 3f ee 23 7f 3f 02 9a 7f 3f 5d 2d 82 3f
       0.9954545 0.996642 0.9984437 1.0170094
000030 8f 32 7f 3f e4 be 7f 3f 59 17 82 3f 4d 6a 80 3f
       0.9968652 0.9990065 1.0163375 1.003244
000040 27 c0 82 3f 6d a4 7f 3f 88 4b 7d 3f 7b 02 7f 3f
       1.021489 0.9986027 0.98943377 0.9961316
000050 ee a3 7f 3f 75 d7 81 3f 5f 03 82 3f 3a 86 7d 3f
       0.9985951 1.0143877 1.0157279 0.9903294
000060 12 d9 7f 3f 76 79 84 3f d8 34 83 3f 03 b5 7f 3f
       0.999406 1.0349567 1.0250502 0.99885577
000070 ed 16 7f 3f e7 86 85 3f 84 e9 7e 3f 16 ed 7e 3f
       0.99644357 1.0431794 0.99575067 0.99580514

Const_3 f4 [32]
000000 82 17 48 bb 44 db 82 bb 5b 57 fb bb b9 4f 9e bb
       -0.003053159 -0.0039934237 -0.0076703257 -0.004831281
000010 1f 2e 07 3d eb 75 c2 3c 5a 7c 9c 3c 9c d4 8a ba
       0.03300297 0.023737868 0.019102264 -0.0010591927
000020 59 0d b9 bb be da ca ba 82 7c b8 bb 48 f3 2a ba
       -0.005647343 -0.0015476567 -0.005630077 -0.0006521237
000030 bb 1a c3 bb 8a 8e 68 bb 01 16 62 ba 29 a6 74 bb
       -0.0059541143 -0.003548535 -0.00086244947 -0.0037330484
000040 2c 36 c4 3c fd f4 ce bb 61 ad 40 bc c8 c3 0a ba
       0.023951612 -0.006315826 -0.011760087 -0.0005293456
000050 d1 05 d1 bb 91 fa 1b 3d c9 ff 97 ba 4a 5a c2 bb
       -0.006378867 0.038080756 -0.0011596616 -0.0059311735
000060 3e 65 a4 bb fa e9 e0 3c 06 49 f3 3c bb 66 82 bb
       -0.005016952 0.027455319 0.029697906 -0.0039795316
000070 c2 c9 37 ba 13 be e0 3c 46 21 94 bb e7 d2 06 bc
       -0.000701096 0.027434384 -0.004520568 -0.008228994

Const_5 f4 [32]
000000 37 f5 b1 bd 51 66 9f 3d 5a 77 18 be b1 b5 b1 3d
       -0.08689349 0.07783187 -0.14889279 0.08677233
000010 d7 79 bd 3d ca d9 a8 bd 36 d1 93 bd bd 5e ed 3d
       0.09251755 -0.08244665 -0.07217638 0.115903355
000020 b7 7a f6 bd 51 26 01 3e 70 b8 12 be d6 24 0b 3e
       -0.12035125 0.12612273 -0.1432817 0.1358827
000030 6e 1b 16 3e 64 eb f4 bd 5a ff c2 bd 82 d8 f2 bd
       0.14658901 -0.1195896 -0.09521361 -0.11857702
000040 3a 7d 0b 3e 7b 05 02 3e 6d ba 79 bd f7 bf ee bd
       0.13621989 0.12697403 -0.060968805 -0.11657708
000050 5a 45 21 3e 2d 6e b6 3d 34 c7 06 3e e3 ca 31 3d
       0.15749112 0.08907733 0.13161927 0.04340638
000060 35 6b c0 3d 3c 33 39 bd e9 fe 3c bd 27 cc 97 bd
       0.09395448 -0.045214877 -0.04614154 -0.07411986
000070 64 20 b5 bd b1 e5 8c bd 8b b8 0b be 8e d3 0b be
       -0.08844069 -0.06879748 -0.13644616 -0.1365492

Const_6 f4 [32]
000000 e4 7a a1 3f 0b 9b a5 3f 8d fd 7f 3f ff 11 80 3f
       1.2615628 1.293794 0.9999626 1.0005492
000010 3d 97 a2 3f 89 33 80 3f 2f 0c 88 3f 41 51 7e 3f
       1.2702404 1.0015727 1.0628718 0.99342734
000020 83 bc a3 3f c4 b8 81 3f fe bd 7f 3f 98 4e a1 3f
       1.2791904 1.0134511 0.9989928 1.260211
000030 fd d5 9e 3f ba ff ae 3f ab d4 9a 3f 61 a8 82 3f
       1.2409054 1.3671792 1.2096151 1.0207635
000040 b4 d5 7c 3f 73 45 7c 3f 26 7a 7f 3f 10 e2 81 3f
       0.98763585 0.9854347 0.9979576 1.0147114
000050 4b 0e 82 3f ed ed 7f 3f a4 84 7d 3f c9 1d 80 3f
       1.0160612 0.9997242 0.9903052 1.000909
000060 bb 69 7e 3f 1a 54 7f 3f d3 e6 ad 3f 80 c0 9f 3f
       0.9938008 0.99737704 1.3586067 1.2480621
000070 58 0d 80 3f 1a 1c 85 3f ff 70 7f 3f 36 fe 80 3f
       1.0004072 1.0399201 0.99781793 1.0077579

Const_7 f4 [32]
000000 07 73 82 3e 07 c3 87 3e 17 9a 1d b8 76 a2 85 38
       0.25478384 0.26515982 -3.7575224e-05 6.372195e-05
000010 e0 0c 86 3e 27 fc 2a 3c eb cc 28 3d 07 bd 0d bc
       0.26181698 0.010436094 0.04121105 -0.008651025
000020 10 b2 87 3e ee 2c a5 3b 5f ac 95 bb 0d a0 84 3e
       0.26503038 0.0050407564 -0.0045676674 0.2590336
000030 e0 52 80 3e 52 60 9b 3e 72 c7 7b 3e 2d d7 44 3c
       0.2506323 0.30346924 0.24587801 0.0120141925
000040 31 35 a1 bc 8b 92 a2 bc ed c3 df ba e9 8c 4b 3c
       -0.019678684 -0.019845268 -0.001707194 0.012423732
000050 b4 c5 a8 3c ba d4 9e ba f9 61 90 bc 00 de b9 3a
       0.020602085 -0.0012117841 -0.017624842 0.0014180541
000060 a8 ce 45 bc d1 0c 91 bb d3 11 99 3e e4 00 84 3e
       -0.0120731965 -0.0044265767 0.2989641 0.2578193
000070 f7 b3 3f 3b 0f fe 42 3d 7d f6 e7 bb aa 9d 0f 3c
       0.0029251555 0.04760557 -0.0070789442 0.008765617

MatMul f4 [32, 1536]
000000 f4 80 39 3b d9 bd 9e bb fd 88 37 3c 6b 69 d9 bc
       0.0028305622 -0.004844409 0.011202094 -0.026539525
000010 36 b4 59 3c 80 f3 9f 3c 6d eb 0c 3c 59 96 ce 3a
       0.013287595 0.01952529 0.008601052 0.001576136
000020 15 2b be bc 64 2d 88 bb 8b be ae bc 27 dc aa bc
       -0.023213902 -0.0041558016 -0.021331092 -0.02085693
000030 b6 84 72 3c 68 14 de 39 c5 74 4c bb 82 2b f8 3b
       0.014802149 0.00042358343 -0.003119753 0.007573546
000040 81 c6 16 3c 6c 90 ee 3b 75 88 b5 3b ad ec d0 bc
       0.0092026 0.0072804 0.0055399486 -0.02550348
000050 71 9b ac bb de b5 98 bc 02 a4 4b bc 9c 42 b8 bc
       -0.0052675535 -0.018641409 -0.012429239 -0.0224927
000060 01 f8 a9 3b 15 5f 95 3c 08 31 a7 3c 7b 04 26 bb
       0.005187035 0.018233815 0.020409122 -0.002533226
000070 25 c7 a4 3c 28 4f 5f bc e1 80 ee 37 43 2b 0c 3c
       0.02011449 -0.013629712 2.8431825e-05 0.008555236
000080 26 da 3a 3c 67 8e dc 3b 6e 2f 34 3a d5 c5 4a ba
       0.01140455 0.006730843 0.00068735227 -0.0007735168
000090 da 95 6e 3b 15 25 83 3c 76 d5 b6 bc c3 6a b9 bc
       0.0036405236 0.016008893 -0.022318583 -0.022633916
0000a0 99 2d d3 3c 4a f9 50 bc 4f 26 ac 3c b9 5e 62 bc
       0.025778579 -0.012754748 0.02101436 -0.013816529
0000b0 79 0f c1 39 23 8a 89 3c 47 0c 91 b8 39 1b d2 3a
       0.00036823357 0.016789502 -6.9164256e-05 0.0016029841
0000c0 03 62 4e bc 01 05 3a bb 83 ea 0e 3a 73 7e de 3c
       -0.01259661 -0.002838433 0.0005451815 0.027159905
0000d0 1e 23 c8 3b 46 6c 84 3c 98 60 9f 3c 6f 54 11 3c
       0.006107702 0.01616491 0.01945524 0.008870228
0000e0 75 0d c3 3c 0d 73 ea 3b b2 e7 3d 3b 51 a2 29 3c
       0.023810128 0.0071548284 0.0028977212 0.010353641
0000f0 c0 f5 b9 bb 60 6c d9 3b e0 5b 97 3c 9a f4 bd ba
       -0.0056750476 0.0066352338 0.018476427 -0.0014492453
000100 74 22 0f 3b ad 09 f4 3c 24 f3 56 3c 90 7a 48 3b
       0.0021840604 0.02978977 0.013119493 0.003059063
000110 66 a6 ec 39 b4 4e 5f bb a0 ba 4d bc c8 57 a3 bc
       0.00045137404 -0.003407401 -0.012556702 -0.019939318
000120 6e bf 86 bc aa 74 1b 3c ae 90 56 3c 5f f4 af 3c
       -0.016448703 0.009488264 0.013096018 0.02147883
000130 55 ca 41 3a 31 4e 22 bc dd a9 72 bc f5 d8 6c bc
       0.00073925155 -0.009906338 -0.014811006 -0.014456023
000140 9d 17 98 bc b1 54 a2 bc 6e 36 d1 3b 11 ca a2 3c
       -0.018565947 -0.019815775 0.0063846624 0.019871743
000150 3c 95 ce bb 32 93 c5 bc 7d fa ac 3b f5 76 5a 3c
       -0.006304411 -0.02411804 0.005278884 0.013334026
000160 4a a5 44 bc 6c fc 61 bc e9 c1 74 bc 06 c2 87 3b
       -0.012002299 -0.013793092 -0.01493881 0.0041430024
000170 68 e0 74 bc d8 b2 9c 3c 43 4a 1a bc 88 0d b1 bb
       -0.014946081 0.019128248 -0.009417119 -0.0054032244
000180 f1 b6 94 3b f7 fd 64 3c 9a 5c 8c 3c 14 0d ea 3b
       0.00453841 0.013976566 0.017134 0.0071426723
000190 2c 6c ac 3c b3 46 bd 3c 04 f8 6d bc a3 b1 99 3c
       0.021047674 0.023105001 -0.014524464 0.018761462
0001a0 97 7b af bb 87 f0 c1 3c cb ad bf 3a 02 cf b9 3c
       -0.005355309 0.023674263 0.0014623938 0.022681717
0001b0 ce a7 8d bc c7 a1 cc 3c 17 a7 c3 3c dd fc ae bc
       -0.01729193 0.024979485 0.023883386 -0.021360809
0001c0 27 49 31 3c 8a d7 f1 3c 5a 9f c0 bc 02 77 43 3c
       0.0108206635 0.029521722 -0.023513485 0.011930229
0001d0 b8 47 a9 3c 74 4a e2 3c df b9 94 3c 51 78 9b bb
       0.020664081 0.027623393 0.018155036 -0.0047445674
0001e0 21 9e ab bc 19 be 2d 3b 41 e4 b9 bc 5b 4c 7c 3c
       -0.020949425 0.0026511012 -0.022691848 0.015399064
0001f0 d0 70 1a 3c fd 8d 5b bc 0b 11 11 3b bb 96 b9 3c
       0.009426311 -0.013400552 0.0022135403 0.022654882
000200 67 bd 13 bc 2b 0c a2 bc 20 42 c8 bc f9 d0 af bb
       -0.009017325 -0.019781193 -0.024445593 -0.0053654877
000210 93 80 8b 3c d9 ff 74 3c c0 ce 4e 3c e9 fa 5a 3c
       0.017029082 0.014953577 0.012622535 0.013365486
000220 72 83 0e bc 00 3c 5b 3c 1d 35 03 3c 12 6a 8f 3c
       -0.008698331 0.013381004 0.008008269 0.017506633
000230 cf 07 19 bc d7 df 04 3c 16 a5 68 3c 76 20 bb 3c
       -0.009340241 0.008110008 0.014199516 0.022842627
000240 b3 f0 92 3c e5 ee e2 3b 77 da c7 3c f6 6d 9e 3c
       0.01793704 0.006925451 0.024396164 0.019339543
000250 13 48 f0 39 87 6a bd 3c ad 82 1a bc 09 1d 37 bb
       0.00045830067 0.023122085 -0.00943057 -0.002794089
000260 66 b0 0a bc 4f cd a1 3c bd 4d 5b 3b 12 4f ca 3c
       -0.008464908 0.01975122 0.0033463084 0.024695907
000270 22 d6 c9 3c 1a b6 c9 bb c0 96 d5 3b 9e df 6a 3a
       0.02463824 -0.0061557414 0.006518215 0.0008959713
000280 f3 b0 d1 bc b9 73 01 3c 5d 71 dd 3c b2 b1 82 bc
       -0.025597071 0.007901126 0.027031595 -0.015953872
000290 ca a6 3c bb 6b 94 8e 3a c6 ca 14 bc 2a a2 9f 3c
       -0.0028785937 0.0010877972 -0.009081548 0.019486506
0002a0 07 db 06 bc b3 2d c2 3c d5 ea c2 bc e6 41 6b bc
       -0.008230931 0.023703432 -0.023793617 -0.014358973
0002b0 b9 42 ac bc 53 b4 ec 3c 55 fd c2 3c c9 b7 e5 3b
       -0.02102791 0.028894579 0.023802439 0.0070104343
0002c0 f2 fc 6f bc 8e 6f 06 3c 95 18 c7 bc 17 b8 cf 3c
       -0.014647709 0.008205308 -0.024303714 0.025356336
0002d0 99 cd 44 3c 28 d5 f3 3a b6 63 88 3c 2d 0e cb bc
       0.012011909 0.0018602954 0.016649108 -0.024787033
0002e0 d1 c3 80 3c 22 d5 8e 3b 0b 59 fd ba 22 54 d9 bb
       0.015718373 0.0043589035 -0.0019328905 -0.006632344
0002f0 a4 a7 13 ba 52 67 72 3c b0 50 41 3c 68 2d cf 3b
       -0.00056325854 0.014795141 0.011799023 0.0063225515
000300 b3 4d 7e 3a 59 78 9c bc d4 8b 6e bc 64 5b 8e bc
       0.0009700909 -0.019100355 -0.014559705 -0.017377563
000310 f4 7a d1 3c 33 77 94 bc 89 b2 bf bc 26 b7 88 3c
       0.025571324 -0.018123245 -0.023400562 0.016688894
000320 a4 64 c9 3c 2f 72 ea 3b fb 87 98 bc 00 2d b4 3b
       0.024584122 0.007154725 -0.018619528 0.0054985285
000330 07 c9 18 bc 6e 8f 53 bc ae ae cc 3c b1 98 a4 bc
       -0.009325272 -0.012912614 0.024985638 -0.02009234
000340 d1 b3 da 3c e7 ba 42 3a b5 f2 91 3c d9 39 a7 bc
       0.026697071 0.00074283633 0.017815927 -0.020413326
000350 21 1a eb 3b d6 f1 52 39 2f 64 c6 3c 07 fc c5 bc
       0.0071747457 0.00020117252 0.024217693 -0.024168028
000360 7d e0 b5 b9 3e 4a 92 3c e4 5b e1 3b 58 2d 5d b9
       -0.00034690267 0.017857667 0.0068774093 -0.00021093094
000370 e1 6b 8b bc c5 e5 35 3c 0c 78 5c ba 8d c0 73 39
       -0.017019214 0.011102145 -0.00084102224 0.00023246017
000380 99 86 13 3c 64 a7 a5 bc d7 70 a2 bc 33 c2 1b bc
       0.009004259 -0.02022142 -0.019829197 -0.00950675
000390 f4 c2 c6 bc 07 da db 39 7c e0 09 bc 0f a4 9d 3b
       -0.024262883 0.00041933378 -0.008415338 0.004810817
0003a0 94 74 db 3b b9 e4 bf bc 5e 07 97 3c d9 e3 69 3a
       0.006697247 -0.023424493 0.01843613 0.00089221966
0003b0 92 48 8c bc 03 a0 27 3b 8d 58 f2 ba 01 e7 59 bc
       -0.017124448 0.0025577552 -0.0018489525 -0.0132997045
0003c0 06 95 72 3b 3d 6f e6 3c 4c 05 38 3c d7 7a 25 bb
       0.0037015094 0.028129214 0.011231732 -0.002525022
0003d0 de 23 86 3c 03 65 65 3c a1 e3 a0 3c 04 51 7f bb
       0.016374525 0.014001134 0.019639792 -0.0038958201
0003e0 48 ce a5 bc de d6 ab 3c fe c4 ae 3a a6 55 27 bc
       -0.020239964 0.02097648 0.0013333855 -0.010213291
0003f0 8a 18 cf 3c b4 cc c6 3c ec e2 b8 ba 1a c5 7e bc
       0.025280256 0.024267532 -0.0014105714 -0.015549922

MatMul_1 f4 [32, 32]
000000 ae 3a 2e be 42 4e cc 3c 46 b8 f9 bd 4b 83 d2 bd
       -0.17014572 0.02493966 -0.121933505 -0.102789484
000010 2a 27 28 3e 9e 91 48 3e a3 69 18 be eb f7 02 be
       0.1642119 0.19586799 -0.14884047 -0.12789886
000020 aa 51 22 3d f9 3e 1d be 87 62 48 bd bc a7 f9 bd
       0.039628662 -0.15356053 -0.048922088 -0.12190196
000030 55 07 ae bd a6 e5 99 bd ba d9 2e bb be 47 25 3e
       -0.08497492 -0.07514505 -0.0026680068 0.16140649
000040 68 37 a6 3d 6f 12 78 3d 1e a3 a5 bc 6b b4 d7 3d
       0.08116037 0.060564455 -0.020219382 0.10532459
000050 19 f3 05 be b5 4b 07 be d0 ff 2c be 96 b2 1a 3e
       -0.13081016 -0.13212474 -0.1689446 0.15107188
000060 07 29 27 3e eb 2b 05 3e 66 62 09 3e d5 46 03 3d
       0.16324244 0.13005035 0.13416442 0.032049973
000070 fe ba 4d bd 04 20 a9 bd fa c8 23 3e 09 6d e0 3c
       -0.050227158 -0.082580596 0.15994635 0.027395742
000080 c9 8f 2d be 0a c7 7c 3d 64 2b ca bd 17 26 31 bd
       -0.16949381 0.061713256 -0.09871557 -0.043249216
000090 9d d3 e9 bd b4 b9 30 3e c3 9d 01 3e a8 be 27 3e
       -0.11417315 0.1725834 0.12657838 0.16381323
0000a0 c2 81 d8 3d fb c2 5d bb d9 3b cf 3d 37 30 60 3d
       0.10571624 -0.0033838141 0.10118837 0.05473348
0000b0 88 ab 95 bd c4 b1 81 bc 82 a2 0b 3d b7 bd 48 3c
       -0.073081076 -0.015831836 0.034090526 0.012252263
0000c0 00 e7 3a 3d d7 c2 24 bc 16 8f f8 bd c0 29 4f bd
       0.045630455 -0.010056219 -0.121366665 -0.050576925
0000d0 40 88 ee 3c 03 57 e8 3d 1c 5f 9e 3c ac 53 ea bd
       0.029117703 0.11344721 0.019332461 -0.114417404
0000e0 eb 82 88 3c 01 98 3e 3e 32 1f fc bd 61 ce ce bd
       0.016663989 0.18612672 -0.123106375 -0.100979574
0000f0 60 1b 10 be ce f9 45 3d 78 4a 12 3e b1 a3 2c bd
       -0.14072943 0.048333935 0.1428622 -0.042148296
000100 91 ec ea 3d fb a6 a6 3c fc 4f 62 3d b3 21 be bd
       0.11470903 0.020343294 0.05525206 -0.09283771
000110 cd 6b 64 bd a0 7d dc bd b8 79 09 3e 12 8b 24 3e
       -0.05576687 -0.107661486 0.13425338 0.16068676
000120 23 19 a3 bd 3a 95 1e be 9d 7a 2f be 4c cd bb bd
       -0.07963779 -0.15486613 -0.17136617 -0.09170017
000130 7b 25 24 3e ed 27 09 bd 92 67 b0 bd bb 82 fb bd
       0.16029923 -0.03348534 -0.086135045 -0.12280794
000140 66 56 8b bd ad 2b 71 bd e8 c1 db bd 83 d5 36 3d
       -0.068035886 -0.058879543 -0.10730344 0.044637214
000150 53 fc e8 bd 4e 0c 54 bd cd 59 00 be 49 62 ea 3d
       -0.11376252 -0.051769547 -0.12534256 0.11444528
000160 58 b6 14 be 61 86 44 3d 28 ec 13 3e b2 9b 2a be
       -0.14522684 0.047979716 0.14445555 -0.16660956
000170 a5 66 29 bd 52 a7 23 bd 81 8a eb 3d 00 5f 31 3e
       -0.041357655 -0.03995449 0.11501027 0.17321396
000180 52 b3 55 3d 35 ee 24 be 93 40 d6 3c 96 c0 25 3e
       0.052172966 -0.16106494 0.026153838 0.16186747
000190 bd d7 04 be b5 af 1e be 3d 2c b0 bd 8c 8a 13 be
       -0.12972923 -0.15496714 -0.08602188 -0.1440832
0001a0 54 fd 05 be 9d 6e 1e be 4d 61 fe 3c 7a 28 1f 3d
       -0.13084918 -0.15471883 0.031052256 0.03885696
0001b0 cc ae 16 3d a1 a7 27 be ab be 0f 3e 06 d1 72 3d
       0.036787793 -0.16372539 0.14037578 0.05928137
0001c0 48 9a bc bd 90 c3 df 3d d9 78 8f bd bd 8d bc 3c
       -0.09209114 0.109259725 -0.07005472 0.023016805
0001d0 a5 db a4 bd ed de 96 3d c7 9c 47 bc 1d 09 24 be
       -0.08049706 0.073667385 -0.012183375 -0.16019101
0001e0 70 b4 b6 bd 53 57 b9 3d 08 a5 07 3e 56 81 30 be
       -0.089211345 0.09049859 0.13246548 -0.17236838
0001f0 dd bd 0d 3e fa f8 9e 3d 7e de f2 bd e6 54 1e bd
       0.13841958 0.07762332 -0.11858843 -0.038655184
000200 05 da 1f 3e d4 8b ef bd c4 dc 10 3e 52 8b b6 bd
       0.15610512 -0.11696592 0.14146715 -0.08913292
000210 0b c7 6b 3d 0e d7 5e 3b 90 f9 a7 3d f4 69 7f bc
       0.05756287 0.0034002694 0.08201897 -0.015589226
000220 85 f1 c8 3d fe e6 d6 bd bd e5 09 3d 6c f8 9e 3d
       0.09811691 -0.10493277 0.03366636 0.077622265
000230 c5 be 64 bd b2 10 02 3d e6 66 b3 3d 23 52 8c 3c
       -0.055845995 0.031754203 0.08759861 0.01712901
000240 3b 7b 9e bd 18 2f 8d 3d 9e 87 cc 3d e0 79 c7 bd
       -0.07738348 0.06893748 0.099868044 -0.09740043
000250 be c5 c7 bd f5 dd a6 3d 12 e6 56 bd a4 be 0a 3c
       -0.09754513 0.08147804 -0.052465506 0.008468304
000260 e1 74 22 3e c3 8e 3d 3d af 19 de 3d 8c 3e cf bc
       0.15864898 0.046278726 0.108447425 -0.02529838
000270 bb 59 5c 3d df bd a5 bd d8 fa bd bd 87 ce 99 3d
       0.05379651 -0.08092856 -0.0927636 0.07510095
000280 20 7c 1f 3e b6 6d 3f 3d ca da 9a bd 8b ba 03 be
       0.15574694 0.046735488 -0.07561262 -0.12864129
000290 49 d5 d9 3d 4d 89 02 be 45 06 38 bd b2 4e b8 bd
       0.10636384 -0.12747689 -0.044927854 -0.08999385
0002a0 34 b2 a8 3b 41 cd fa 3d 4a 83 08 3e 27 8d 1f 3e
       0.0051481966 0.1224618 0.13331333 0.15581189
0002b0 5f 6f 13 3d 78 3f 15 be 4a a8 f0 3d 32 68 2a 3e
       0.035994884 -0.14574993 0.117508486 0.1664131
0002c0 bc e5 af bc 28 1f 2a be 40 55 50 3c ea e2 26 be
       -0.02147185 -0.16613448 0.012715638 -0.16297498
0002d0 7e a3 a4 3d 4f be 83 bc ec 0f b6 bd c5 67 ed 3d
       0.08038996 -0.016081957 -0.088897556 0.11592058
0002e0 39 19 8f 3d ba 0e a3 3c cb ff 68 3d d2 01 a4 3d
       0.06987233 0.019904483 0.05688457 0.0800816
0002f0 ac c9 b3 bc 55 f0 c2 bc 47 61 25 3d 09 c9 aa bc
       -0.02194675 -0.02379624 0.040375974 -0.020847814
000300 76 f0 62 bc 4b 72 a3 3d 58 d8 6b bd 33 4a 20 be
       -0.013851276 0.07980784 -0.05757937 -0.15653305
000310 00 81 ea 3d dc cd c2 bd 52 5d d7 bd 9a 46 ff bd
       0.11450386 -0.09511921 -0.10515846 -0.12464638
000320 f3 66 0d 3e 81 0e e0 bd 1e b1 a1 bb bd b4 2a 3b
       0.13808803 -0.109402664 -0.004934444 0.002604767
000330 8f 6b f5 3d 9e fe 9c 3c 24 2d d3 3d d8 e7 aa bd
       0.11983406 0.01916438 0.10311344 -0.08345002
000340 41 08 c2 bd 3d 34 5d 3d 25 8f ed bd a0 e7 03 3e
       -0.094742306 0.054004896 -0.11599568 0.12881327
000350 a6 ef 0b 3d dd df a4 3d c4 0c 4c 3e 60 41 ca 3d
       0.034164093 0.08050511 0.19926745 0.098757505
000360 82 f7 65 bd f5 98 d9 bd ac 67 14 3e c4 7e 1e be
       -0.056144245 -0.10624877 0.14492673 -0.15478045
000370 6c 7f e8 bc 72 97 a7 bd 6e 54 7d bd 7b 6b c6 3d
       -0.028381072 -0.08183183 -0.061848097 0.09688469
000380 47 c1 0b 3c bc ba a0 3d dc 62 1d 3e 3f 5d 0e 3e
       0.008529968 0.07848117 0.15369743 0.13902758
000390 13 8f 04 3d a1 12 3a be 6f a3 d7 3c e3 92 9a bd
       0.03236301 -0.18171169 0.026323048 -0.07547548
0003a0 51 aa e6 bc 07 75 26 be f0 47 42 bd a0 32 22 3e
       -0.028157385 -0.1625558 -0.047431886 0.15839624
0003b0 bb a6 f5 3d af e4 18 3e 24 91 01 3e 7e e5 32 bd
       0.11994692 0.14930986 0.12653023 -0.043675892
0003c0 3a 2b de bd bb e8 44 bc 2f cf 41 3d e8 96 1f 3d
       -0.108480886 -0.012018378 0.047316726 0.038962275
0003d0 41 e9 33 be 84 ac 19 bd ac e5 f5 bd a6 af ab 3d
       -0.17569448 -0.03751804 -0.12006697 0.08383112
0003e0 b0 be 72 bd 4a d2 76 bd 36 1a fd 3d ab c5 d5 bd
       -0.059263885 -0.06025914 0.12358515 -0.10438093
0003f0 6f cd e9 3d 3b 04 d1 3b f6 07 08 3e 71 52 08 3d
       0.114161365 0.006378678 0.13284287 0.033281747

MatMul_2 f4 [1, 32]
000000 b5 3a af be 77 6c b4 be e4 aa 26 3c 92 54 35 bd
       -0.34224477 -0.35239002 0.010172579 -0.044270106
000010 2a 99 a5 be 80 04 a5 3d f5 bc 1f 3e dc 6f ab 3d
       -0.32343417 0.08057499 0.15599425 0.08370945
000020 d1 94 a4 be 3b 2c b0 3d 75 de 1d 3e eb 83 a2 be
       -0.32144788 0.08602186 0.15416892 -0.3174127
000030 72 8b a4 be f8 d2 a5 be e4 37 93 be 8a 72 28 3e
       -0.32137638 -0.3238752 -0.2875358 0.16449943
000040 b5 cb 34 3d f3 86 0e bd 35 44 b2 3d 52 39 b4 3c
       0.044139583 -0.034796666 0.08704416 0.021999989
000050 c2 bd 1a bd 1d 56 cf 3c 37 25 66 3d 2a ca 22 3e
       -0.037778623 0.025309617 0.056187835 0.15897432
000060 e7 08 40 3d 84 e2 62 bd 1e 7a a8 be e7 12 a5 be
       0.04688349 -0.055391803 -0.32905668 -0.32240984
000070 10 4c 8f 3d 16 d8 ed 3d f1 0d 31 3e 49 40 7a 3c
       0.0699693 0.11613481 0.17290474 0.015274116
